…
ehavior in v4.48, even if the model was saved with a slow processor. This will result in minor differences in outputs. You'll still be able to use a slow processor with `use_fast=False`.\n/Users/clepelaars/miniconda3/envs/py312/lib/python3.12/site-packages/transformers/audio_utils.py:297: UserWarning: At least one mel filter has all zero values. The value for `num_mel_filters` (128) may be set too high. Or, the value for `num_frequency_bins` (256) may be set too low.\n  warnings.warn(\n\n\nASTModel(\n  (embeddings): ASTEmbeddings(\n    (patch_embeddings): ASTPatchEmbeddings(\n      (projection): Conv2d(1, 768, kernel_size=(16, 16), stride=(10, 10))\n    )\n    (dropout): Dropout(p=0.0, inplace=False)\n  )\n  (encoder): ASTEncoder(\n    (layer): ModuleList(\n      (0-11): 12 x ASTLayer(\n        (attention): ASTSdpaAttention(\n          (attention): ASTSdpaSelfAttention(\n            (query): Linear(in_features=768, out_features=768, bias=True)\n            (key): Linear(in_features=768, out_features=768, bias=True)\n            (value): Linear(in_features=768, out_features=768, bias=True)\n            (dropout): Dropout(p=0.0, inplace=False)\n          )\n          (output): ASTSelfOutput(\n            (dense): Linear(in_features=768, out_features=768, bias=True)\n            (dropout): Dropout(p=0.0, inplace=False)\n          )\n        )\n        (intermediate): ASTIntermediate(\n          (dense): Linear(in_features=768, out_features=3072, bias=True)\n          (intermediate_act_fn): GELUActivation()\n        )\n        (output): ASTOutput(\n          (dense): Linear(in_features=3072, out_features=768, bias=True)\n          (dropout): Dropout(p=0.0, inplace=False)\n        )\n        (layernorm_before): LayerNorm((768,), eps=1e-12, elementwise_affine=True)\n        (layernorm_after): LayerNorm((768,), eps=1e-12, elementwise_affine=True)\n      )\n    )\n  )\n  (layernorm): LayerNorm((768,), eps=1e-12, elementwise_affine=True)\n)\n\n\n\n\nNumPy\nThe default is to return embeddings in NumPy format.\n\nemb = ae(resampled)\ntest_eq(emb.shape, (1214, 768))\nemb[0][:5]\n\narray([-0.5875584 ,  0.2830076 , -0.72917604,  0.7644301 , -1.1770165 ],\n      dtype=float32)\n\n\n\n\nTorch\nOptionally, you can return embeddings as PyTorch tensors.\n\ntorch_ae = AudioEmbedding(return_tensors=
…
